2022-01-05 17:14:29,123 ----------------------------------------------------------------------------------------------------
2022-01-05 17:14:29,124 Model: "TextRegressor(
  (document_embeddings): TransformerDocumentEmbeddings(
    (model): XLNetModel(
      (word_embedding): Embedding(32000, 768)
      (layer): ModuleList(
        (0): XLNetLayer(
          (rel_attn): XLNetRelativeAttention(
            (layer_norm): LayerNorm((768,), eps=1e-12, elementwise_affine=True)
            (dropout): Dropout(p=0.1, inplace=False)
          )
          (ff): XLNetFeedForward(
            (layer_norm): LayerNorm((768,), eps=1e-12, elementwise_affine=True)
            (layer_1): Linear(in_features=768, out_features=3072, bias=True)
            (layer_2): Linear(in_features=3072, out_features=768, bias=True)
            (dropout): Dropout(p=0.1, inplace=False)
          )
          (dropout): Dropout(p=0.1, inplace=False)
        )
        (1): XLNetLayer(
          (rel_attn): XLNetRelativeAttention(
            (layer_norm): LayerNorm((768,), eps=1e-12, elementwise_affine=True)
            (dropout): Dropout(p=0.1, inplace=False)
          )
          (ff): XLNetFeedForward(
            (layer_norm): LayerNorm((768,), eps=1e-12, elementwise_affine=True)
            (layer_1): Linear(in_features=768, out_features=3072, bias=True)
            (layer_2): Linear(in_features=3072, out_features=768, bias=True)
            (dropout): Dropout(p=0.1, inplace=False)
          )
          (dropout): Dropout(p=0.1, inplace=False)
        )
        (2): XLNetLayer(
          (rel_attn): XLNetRelativeAttention(
            (layer_norm): LayerNorm((768,), eps=1e-12, elementwise_affine=True)
            (dropout): Dropout(p=0.1, inplace=False)
          )
          (ff): XLNetFeedForward(
            (layer_norm): LayerNorm((768,), eps=1e-12, elementwise_affine=True)
            (layer_1): Linear(in_features=768, out_features=3072, bias=True)
            (layer_2): Linear(in_features=3072, out_features=768, bias=True)
            (dropout): Dropout(p=0.1, inplace=False)
          )
          (dropout): Dropout(p=0.1, inplace=False)
        )
        (3): XLNetLayer(
          (rel_attn): XLNetRelativeAttention(
            (layer_norm): LayerNorm((768,), eps=1e-12, elementwise_affine=True)
            (dropout): Dropout(p=0.1, inplace=False)
          )
          (ff): XLNetFeedForward(
            (layer_norm): LayerNorm((768,), eps=1e-12, elementwise_affine=True)
            (layer_1): Linear(in_features=768, out_features=3072, bias=True)
            (layer_2): Linear(in_features=3072, out_features=768, bias=True)
            (dropout): Dropout(p=0.1, inplace=False)
          )
          (dropout): Dropout(p=0.1, inplace=False)
        )
        (4): XLNetLayer(
          (rel_attn): XLNetRelativeAttention(
            (layer_norm): LayerNorm((768,), eps=1e-12, elementwise_affine=True)
            (dropout): Dropout(p=0.1, inplace=False)
          )
          (ff): XLNetFeedForward(
            (layer_norm): LayerNorm((768,), eps=1e-12, elementwise_affine=True)
            (layer_1): Linear(in_features=768, out_features=3072, bias=True)
            (layer_2): Linear(in_features=3072, out_features=768, bias=True)
            (dropout): Dropout(p=0.1, inplace=False)
          )
          (dropout): Dropout(p=0.1, inplace=False)
        )
        (5): XLNetLayer(
          (rel_attn): XLNetRelativeAttention(
            (layer_norm): LayerNorm((768,), eps=1e-12, elementwise_affine=True)
            (dropout): Dropout(p=0.1, inplace=False)
          )
          (ff): XLNetFeedForward(
            (layer_norm): LayerNorm((768,), eps=1e-12, elementwise_affine=True)
            (layer_1): Linear(in_features=768, out_features=3072, bias=True)
            (layer_2): Linear(in_features=3072, out_features=768, bias=True)
            (dropout): Dropout(p=0.1, inplace=False)
          )
          (dropout): Dropout(p=0.1, inplace=False)
        )
        (6): XLNetLayer(
          (rel_attn): XLNetRelativeAttention(
            (layer_norm): LayerNorm((768,), eps=1e-12, elementwise_affine=True)
            (dropout): Dropout(p=0.1, inplace=False)
          )
          (ff): XLNetFeedForward(
            (layer_norm): LayerNorm((768,), eps=1e-12, elementwise_affine=True)
            (layer_1): Linear(in_features=768, out_features=3072, bias=True)
            (layer_2): Linear(in_features=3072, out_features=768, bias=True)
            (dropout): Dropout(p=0.1, inplace=False)
          )
          (dropout): Dropout(p=0.1, inplace=False)
        )
        (7): XLNetLayer(
          (rel_attn): XLNetRelativeAttention(
            (layer_norm): LayerNorm((768,), eps=1e-12, elementwise_affine=True)
            (dropout): Dropout(p=0.1, inplace=False)
          )
          (ff): XLNetFeedForward(
            (layer_norm): LayerNorm((768,), eps=1e-12, elementwise_affine=True)
            (layer_1): Linear(in_features=768, out_features=3072, bias=True)
            (layer_2): Linear(in_features=3072, out_features=768, bias=True)
            (dropout): Dropout(p=0.1, inplace=False)
          )
          (dropout): Dropout(p=0.1, inplace=False)
        )
        (8): XLNetLayer(
          (rel_attn): XLNetRelativeAttention(
            (layer_norm): LayerNorm((768,), eps=1e-12, elementwise_affine=True)
            (dropout): Dropout(p=0.1, inplace=False)
          )
          (ff): XLNetFeedForward(
            (layer_norm): LayerNorm((768,), eps=1e-12, elementwise_affine=True)
            (layer_1): Linear(in_features=768, out_features=3072, bias=True)
            (layer_2): Linear(in_features=3072, out_features=768, bias=True)
            (dropout): Dropout(p=0.1, inplace=False)
          )
          (dropout): Dropout(p=0.1, inplace=False)
        )
        (9): XLNetLayer(
          (rel_attn): XLNetRelativeAttention(
            (layer_norm): LayerNorm((768,), eps=1e-12, elementwise_affine=True)
            (dropout): Dropout(p=0.1, inplace=False)
          )
          (ff): XLNetFeedForward(
            (layer_norm): LayerNorm((768,), eps=1e-12, elementwise_affine=True)
            (layer_1): Linear(in_features=768, out_features=3072, bias=True)
            (layer_2): Linear(in_features=3072, out_features=768, bias=True)
            (dropout): Dropout(p=0.1, inplace=False)
          )
          (dropout): Dropout(p=0.1, inplace=False)
        )
        (10): XLNetLayer(
          (rel_attn): XLNetRelativeAttention(
            (layer_norm): LayerNorm((768,), eps=1e-12, elementwise_affine=True)
            (dropout): Dropout(p=0.1, inplace=False)
          )
          (ff): XLNetFeedForward(
            (layer_norm): LayerNorm((768,), eps=1e-12, elementwise_affine=True)
            (layer_1): Linear(in_features=768, out_features=3072, bias=True)
            (layer_2): Linear(in_features=3072, out_features=768, bias=True)
            (dropout): Dropout(p=0.1, inplace=False)
          )
          (dropout): Dropout(p=0.1, inplace=False)
        )
        (11): XLNetLayer(
          (rel_attn): XLNetRelativeAttention(
            (layer_norm): LayerNorm((768,), eps=1e-12, elementwise_affine=True)
            (dropout): Dropout(p=0.1, inplace=False)
          )
          (ff): XLNetFeedForward(
            (layer_norm): LayerNorm((768,), eps=1e-12, elementwise_affine=True)
            (layer_1): Linear(in_features=768, out_features=3072, bias=True)
            (layer_2): Linear(in_features=3072, out_features=768, bias=True)
            (dropout): Dropout(p=0.1, inplace=False)
          )
          (dropout): Dropout(p=0.1, inplace=False)
        )
      )
      (dropout): Dropout(p=0.1, inplace=False)
    )
  )
  (decoder): Linear(in_features=768, out_features=1, bias=True)
  (loss_function): MSELoss()
)"
2022-01-05 17:14:29,131 ----------------------------------------------------------------------------------------------------
2022-01-05 17:14:29,131 Corpus: "Corpus: 4275 train + 475 dev + 250 test sentences"
2022-01-05 17:14:29,131 ----------------------------------------------------------------------------------------------------
…
