2022-01-05 18:48:13,550 ----------------------------------------------------------------------------------------------------
2022-01-05 18:48:13,550 Model: "TextRegressor(
  (document_embeddings): TransformerDocumentEmbeddings(
    (model): AlbertModel(
      (embeddings): AlbertEmbeddings(
        (word_embeddings): Embedding(30000, 128, padding_idx=0)
        (position_embeddings): Embedding(512, 128)
        (token_type_embeddings): Embedding(2, 128)
        (LayerNorm): LayerNorm((128,), eps=1e-12, elementwise_affine=True)
        (dropout): Dropout(p=0, inplace=False)
      )
      (encoder): AlbertTransformer(
        (embedding_hidden_mapping_in): Linear(in_features=128, out_features=768, bias=True)
        (albert_layer_groups): ModuleList(
          (0): AlbertLayerGroup(
            (albert_layers): ModuleList(
              (0): AlbertLayer(
                (full_layer_layer_norm): LayerNorm((768,), eps=1e-12, elementwise_affine=True)
                (attention): AlbertAttention(
                  (query): Linear(in_features=768, out_features=768, bias=True)
                  (key): Linear(in_features=768, out_features=768, bias=True)
                  (value): Linear(in_features=768, out_features=768, bias=True)
                  (attention_dropout): Dropout(p=0, inplace=False)
                  (output_dropout): Dropout(p=0, inplace=False)
                  (dense): Linear(in_features=768, out_features=768, bias=True)
                  (LayerNorm): LayerNorm((768,), eps=1e-12, elementwise_affine=True)
                )
                (ffn): Linear(in_features=768, out_features=3072, bias=True)
                (ffn_output): Linear(in_features=3072, out_features=768, bias=True)
                (dropout): Dropout(p=0, inplace=False)
              )
            )
          )
        )
      )
      (pooler): Linear(in_features=768, out_features=768, bias=True)
      (pooler_activation): Tanh()
    )
  )
  (decoder): Linear(in_features=768, out_features=1, bias=True)
  (loss_function): MSELoss()
)"
2022-01-05 18:48:13,562 ----------------------------------------------------------------------------------------------------
2022-01-05 18:48:13,562 Corpus: "Corpus: 4275 train + 475 dev + 250 test sentences"
2022-01-05 18:48:13,562 ----------------------------------------------------------------------------------------------------
…
